data.pth (torch, 5418 bytes, 6 tensors)

l1.weight f4 [8, 54]
0	0xbe902e60	-0.2816038
1	0x3f34c86f	0.7061834
2	0xbe8febab	-0.28109488
3	0x3d1f9811	0.03896338
4	0x3e625ae7	0.22104989
5	0xbecaea28	-0.39631772
6	0x3e849f41	0.2590275
7	0xbdd469ec	-0.103717655
8	0xbc45dbef	-0.012076362
9	0xbdfa1176	-0.12210362
10	0x3ed70bdb	0.42001233
11	0xbe33944f	-0.17537044
12	0x3efcbe28	0.49363828
13	0xbd9d363b	-0.07676359
14	0x3f212a9e	0.62955654
15	0xbd8e15b4	-0.06937733
16	0x3e8e950c	0.2784809
17	0xbebe1dde	-0.37132162
18	0x3e952dc8	0.2913649
19	0x3e9eaa3e	0.3098926
20	0xbe00a00d	-0.12561055
21	0x3ec01804	0.37518322
22	0x3eec90aa	0.4620412
23	0xbe0817d7	-0.13290344
24	0xbe251edb	-0.16125052
25	0x3e4ae788	0.19814885
26	0x3f14ea9e	0.581705
27	0x3f272da8	0.6530404
28	0x3ecfc293	0.40578136
29	0x3f2556f6	0.64585817
30	0xbeb074db	-0.34464154
31	0xbd489c3d	-0.048977125
32	0xbe4fd170	-0.20294738
33	0xbeba888f	-0.3643231
34	0x3f3f9ec4	0.7485163
35	0xbe30e027	-0.17273007
36	0x3ed5dac1	0.41768458
37	0xbc8dccf9	-0.017309653
38	0x3de07fdd	0.10961888
39	0x3d7576b4	0.059927657
40	0xbe965043	-0.2935811
41	0x3f000076	0.50000703
42	0x3d28e1f9	0.04123113
43	0x3ef6b17f	0.48182294
44	0xbe394fa2	-0.18096784
45	0x3f56048b	0.8360068
46	0xbf0784d9	-0.52937084
47	0x3c1815c0	0.009282529
48	0x3e96e62b	0.2947248
49	0x3eedcdb9	0.46446016
50	0xbe9facc4	-0.31186497
51	0x3ef61480	0.48062515
52	0x3e623dbb	0.22093861
53	0x3ea10895	0.3145186
54	0xbe2ec995	-0.17069085
55	0x3ef7cef4	0.4840008
56	0x3d8686a6	0.06568651
57	0xbd3c81e3	-0.046022307
58	0xbea82e39	-0.32847765
59	0xbdfd3c29	-0.1236499
60	0x3d7346f1	0.059393827
61	0x3d945873	0.07243433
62	0x3d6c2658	0.057653755
63	0x3cc9d5d8	0.024638101
64	0xbdabb01f	-0.08383202
65	0x3f1f27f0	0.62170315
66	0x3f05d61b	0.52279824
67	0x3f179794	0.59215665
68	0x3f35a075	0.70947963
69	0x3ec8593a	0.39130574
70	0xbd0fc3c3	-0.035098802
71	0xbdc0e03a	-0.09417768
72	0x3da85b7d	0.08220575
73	0xbe0593bd	-0.13044639
74	0x3d082bb6	0.03324481
75	0xbdf77cb7	-0.12084334
76	0xbdf5e799	-0.12007064
77	0xbc0d5514	-0.008626241
78	0x3ef5d406	0.48013324
79	0x3c4a8d0f	0.012362733
80	0x3e534d13	0.2063487
81	0x3f418f33	0.7560913
82	0xbdf3bbcc	-0.11901054
83	0x3f02b4a8	0.5105691
84	0xbd9e9aab	-0.07744344
85	0x3f1a9c2a	0.6039454
86	0x3b70c979	0.003674118
87	0x3e94fc1a	0.29098588
88	0x3f409f29	0.7524286
89	0x3e92ca17	0.28669807
90	0xbdf7883e	-0.12086533
91	0xbe457891	-0.19284274
92	0x3e63c80d	0.22244282
93	0x3cbb70d8	0.022880957
94	0xbe2af951	-0.16696669
95	0x3ea81c1c	0.32833946
96	0x3eeeae7d	0.466175
97	0x3f1f9761	0.6234036
98	0x3ebfc614	0.3745581
99	0x3f34f14e	0.706807
100	0xbe9f0648	-0.3105948
101	0xbd120eca	-0.035658635
102	0xbdb1f0a3	-0.08688476
103	0x3e61e363	0.22059397
104	0x3edbe1c4	0.42945683
105	0x3d91262b	0.07087358
106	0x3d40a3a7	0.04703107
107	0x3e613beb	0.21995513
108	0xbe1c17fc	-0.15243524
109	0xbe8e0042	-0.27734572
110	0x3f13c6db	0.57725304
111	0xbae7e867	-0.0017693163
112	0x3db194ec	0.08670983
113	0x3e5806f6	0.21096405
114	0x3e9ebe21	0.31004432
115	0x3ec3ab72	0.3821674
116	0x3f0b4ca7	0.5441384
117	0x3eadd65a	0.339526
118	0x3d866cd8	0.06563729
119	0x3f1a1773	0.6019203
120	0x3f324f5c	0.6965234
121	0x3f152087	0.5825276
122	0xbcca7d79	-0.024718033
123	0x3e833512	0.25626427
124	0xbd8d7393	-0.0690681
125	0x3dbe15c2	0.09281494
126	0x3ea2889c	0.3174485
127	0x3e04eee2	0.12981752
128	0xbe05c9fc	-0.13065332
129	0x3e257dd8	0.16161287
130	0x3d9e5326	0.07730703
131	0x3e94ea33	0.2908493
132	0x3ef8dfee	0.48608345
133	0xbe1674b6	-0.14692959
134	0x3ee9c855	0.45660654
135	0xbe5003d2	-0.20313957
136	0x3e93bf6f	0.2885699
137	0xbee049cb	-0.438063
138	0x3d3a272a	0.045447506
139	0x3f1dcb87	0.61638683
140	0x3c683bbe	0.0141744
141	0x3eedc343	0.46438035
142	0xbe676d92	-0.22600392
143	0x3ec04f64	0.3756057
144	0x3e831bd6	0.25607175
145	0x3ebde090	0.3708539
146	0x3eb9ac37	0.36264202
147	0x3ec74e41	0.3892689
148	0x3ca4a174	0.020096518
149	0x3f13f065	0.5778869
150	0x3eccbcf9	0.39987925
151	0x3c9fba97	0.019498153
152	0x3f3a42a8	0.7275796
153	0xbe606d7c	-0.21916765
154	0xbf0fcf7b	-0.56175965
155	0xbe488b9e	-0.1958451
156	0x3e5235da	0.20528355
157	0x3f06eadf	0.52702135
158	0x3e7c75e9	0.24654354
159	0x3eadfd46	0.33982295
160	0x3ea26725	0.31719318
161	0x3dac612a	0.0841697
162	0x3ea36994	0.31916487
163	0x3ebe87a4	0.3721286
164	0xbeba5c8b	-0.3639873
165	0x3eb1352d	0.34610882
166	0xbd6accf5	-0.05732437
167	0xbf1364f8	-0.5757594
168	0xbe3c302b	-0.1837775
169	0xbec8bbda	-0.3920582
170	0xbef6195c	-0.48066223
171	0xbe53d61e	-0.20687148
172	0x3eafe7be	0.34356493
173	0x3d70a03b	0.058746558
174	0xbe002594	-0.12514335
175	0xbda22acd	-0.0791832
176	0x3e85faae	0.26167816
177	0x3de81947	0.11332946
178	0x3eea8094	0.45801222
179	0xbf21f353	-0.6326191
180	0xbe53eae8	-0.20695078
181	0x3f207b81	0.6268845
182	0x3eb0d7ac	0.34539545
183	0x3f3b08bc	0.730602
184	0x3f23909b	0.63892525
185	0x3ed92ab4	0.42415392
186	0xbdc9967b	-0.09843155
187	0x3e84cbd3	0.25936756
188	0xbe9a7e50	-0.30174494
189	0x3e88337b	0.26601776
190	0xbdfd3ede	-0.123655066
191	0x3e2869ba	0.16446581
192	0xbed8c8bc	-0.42340648
193	0xbb9bc28b	-0.004753416
194	0x3ec35c66	0.38156432
195	0xbeaf845a	-0.34280664
196	0x3e316944	0.17325312
197	0x3e10fd3d	0.14159103
198	0xbe86ed07	-0.26352713
199	0xbe9683e5	-0.29397503
200	0xbe348594	-0.17629081
201	0xbe1251c1	-0.14288999
202	0xbeb89ba9	-0.3605626
203	0xbd9a6735	-0.075392164
204	0xbc5ba857	-0.013406835
205	0x3df75c77	0.12078183
206	0xbddd1a5e	-0.10796045
207	0x3e27b19c	0.16376346
208	0x3f229715	0.6351178
209	0x3ede401a	0.4340828
210	0x3e9534fd	0.2914199
211	0xbe7f4760	-0.24929571
212	0x3db5489f	0.08851742
213	0xbe51d598	-0.20491636
214	0xbdd2f6b2	-0.1030096
215	0x3e02ed74	0.12785894
216	0x3ef6b423	0.48184308
217	0x3e8982d3	0.26857623
218	0x3d1abc7d	0.037777413
219	0xbe376d6d	-0.17912836
220	0xbf127033	-0.5720245
221	0x3ee7a6e8	0.45244527
222	0x3d063bed	0.032771993
223	0xbd21233c	-0.039340243
224	0xbe053a5d	-0.13010545
225	0xbd674ba8	-0.056468636
226	0xbe532a1f	-0.20621537
227	0x3ba21ae7	0.0049470547
228	0xbe81915b	-0.2530621
229	0xbe2c4618	-0.16823614
230	0xbd26a38f	-0.040683325
231	0xbc32859b	-0.010896112
232	0xbeb88ba5	-0.3604404
233	0x3eef8e3c	0.46788204
234	0x3e8cb4a0	0.27481556
235	0xbf11235e	-0.5669459
236	0x3f12488d	0.57141954
237	0xbef4aed4	-0.47789633
238	0xbef71ad3	-0.48262653
239	0xbee0c9cd	-0.43903962
240	0xbe08b32e	-0.13349602
241	0xbe825d63	-0.25461873
242	0x3e029da7	0.12755452
243	0xbe0fd623	-0.1404653
244	0x3e3b9eee	0.18322346
245	0xbe4916ea	-0.19637647
246	0x3e18d134	0.14923555
247	0xbde959f9	-0.11394114
248	0x3e9b6d0a	0.30356628
249	0x3d605781	0.05477095
250	0x3b853c76	0.0040660454
251	0xbda4881c	-0.08033773
252	0x3eb3c61e	0.3511209
253	0xbe7aa307	-0.24476252
254	0xbd33855f	-0.043828364
255	0xbda9a082	-0.082825676

l1.bias f4 [8]
0	0x3ecb2c2d	0.3968214
1	0x3df01069	0.1172188
2	0x3ef52cd8	0.47885776
3	0x3f343fc2	0.70409787
4	0x3f111262	0.56668675
5	0x3f6ead55	0.93233234
6	0x3f21179e	0.6292666
7	0x3f4be95c	0.79652953

l2.weight f4 [8, 8]
0	0x3f926bfd	1.1439205
1	0x3f8bd90f	1.0925616
2	0x3f808c52	1.0042822
3	0x3ec9e38b	0.39431414
4	0xbf2e0594	-0.6797726
5	0xbee1c9ae	-0.44099182
6	0x3f4024aa	0.75055945
7	0x3ed810c2	0.42200285
8	0x3f4ec48b	0.8076865
9	0xbe49a441	-0.19691564
10	0xbe89394a	-0.2680152
11	0x3f754b22	0.9581777
12	0xbf44bc24	-0.7684958
13	0xbddd6bee	-0.108116016
14	0x3f80c621	1.0060464
15	0x3ec1513f	0.37757298
16	0xbd9a0684	-0.07520774
17	0xbea18401	-0.31546023
18	0xbf6911a4	-0.9104254
19	0x3fa6d140	1.3032608
20	0x3f45bb47	0.7723889
21	0x3f254a58	0.64566565
22	0x3f2ba41b	0.6704728
23	0xbd88d270	-0.06680763
24	0xbf4211e8	-0.7580857
25	0xbef4bfeb	-0.47802672
26	0xbd3cd784	-0.04610397
27	0x3f5040fd	0.81349164
28	0x3f8e7744	1.1130147
29	0x3f67c1c8	0.9053006
30	0x3f896d24	1.0736432
31	0x3f0f6a72	0.560218
32	0xbe52a2b6	-0.20569882
33	0xbe6e1eaa	-0.23253885
34	0x3f29eeec	0.6638019
35	0xbe872879	-0.26398066
36	0xbf29a810	-0.6627207
37	0x3f8b4493	1.0880302
38	0xbe9674be	-0.29385942
39	0x3f9f68a1	1.2453805
40	0xbe109cea	-0.14122358
41	0x3e61b035	0.22039874
42	0x3f71fe86	0.94528997
43	0xbdf8a0cc	-0.121400446
44	0xbed5f906	-0.41791552
45	0xbf350a56	-0.70718896
46	0x3efc1803	0.4923707
47	0xbf4eaad9	-0.8072944
48	0x3e7f0862	0.24905542
49	0x3d840154	0.06445566
50	0x3edc2de5	0.43003765
51	0xbfb92f9a	-1.4467652
52	0x3f2c63e5	0.67339927
53	0xbe09eac4	-0.13468462
54	0x3f3f24e1	0.7466565
55	0x3f44c65a	0.7686516
56	0x3f8abd70	1.0839062
57	0x3e075ecf	0.1321976
58	0xbf30126a	-0.687781
59	0x3f93a984	1.1536107
60	0x3fc7f32b	1.5621084
61	0x3f619401	0.8811646
62	0x3f47b2c3	0.78007144
63	0xbe55b2ce	-0.2086899

l2.bias f4 [8]
0	0x3d11450c	0.03546624
1	0x3eb039be	0.34419054
2	0x3eb78016	0.3583991
3	0x3ec535de	0.3851766
4	0x3f290d86	0.6603626
5	0x3f0e00dc	0.5547006
6	0xbe24a4aa	-0.1607844
7	0x3f4d4fe0	0.80200005

l3.weight f4 [7, 8]
0	0x3f2e9451	0.6819506
1	0xbf1e01f0	-0.61721706
2	0xbf3c2617	-0.7349562
3	0xbf52691a	-0.8219162
4	0x3cdb44d8	0.026766226
5	0x3f4e6c4a	0.80633986
6	0xbf540c91	-0.82831675
7	0xbf4773fa	-0.7791134
8	0x3f07ca56	0.53043115
9	0x3f0a5c11	0.5404673
10	0xbedd1e0d	-0.4318699
11	0xbf85db31	-1.0457517
12	0xbf963a83	-1.1736606
13	0xbf953d6c	-1.165937
14	0xbfad6e19	-1.3549224
15	0x3ebd2edb	0.3694981
16	0xbfea02f5	-1.8282152
17	0xbfbbc9ac	-1.467092
18	0xbd41f8f7	-0.047356572
19	0x3eafe11d	0.34351435
20	0x3f5a03a8	0.8516183
21	0xbefae6eb	-0.490043
22	0x3e92fa46	0.28706568
23	0x3e6a17a4	0.2286058
24	0xbeb6e941	-0.35724834
25	0x3f80cde3	1.0062832
26	0x3e0d69aa	0.13809839
27	0x3dd0111f	0.101595156
28	0x3ea08055	0.3134791
29	0xbf00a16e	-0.5024632
30	0xbfa554c3	-1.2916492
31	0xbe3eda20	-0.18637896
32	0x3e75a5fa	0.23989096
33	0x3ee08ca5	0.43857303
34	0xbf891c12	-1.0711691
35	0xbe87f90d	-0.26557198
36	0xbfbd2990	-1.4778309
37	0x3e6215a3	0.22078566
38	0x3ee2c7b8	0.44292998
39	0xbd419b35	-0.047267158
40	0x3e4fe433	0.20301895
41	0xbe97d0c9	-0.29651478
42	0xbf7f8c69	-0.99823624
43	0xbe57e17b	-0.21082108
44	0x3f2032bf	0.6257743
45	0xbf59c285	-0.8506244
46	0x3f55dda5	0.8354133
47	0xbf30edbe	-0.69112766
48	0xbfc253c1	-1.518181
49	0xbdc48b42	-0.09596874
50	0x3f2be98a	0.6715323
51	0x3ef676bf	0.4813747
52	0xbfb050fc	-1.3774714
53	0xbe0d28e5	-0.13785131
54	0xbf77af46	-0.9675182
55	0x3ecc7c81	0.3993874

l3.bias f4 [7]
0	0x3e8a7f5d	0.27050295
1	0x3e09116a	0.13385549
2	0x3e5a4e39	0.21318902
3	0xbe834fc0	-0.25646782
4	0xbecfe283	-0.40602502
5	0xbe01fc56	-0.12693915
6	0xbebb44c7	-0.3657591
